editings/gradctrl_manipulator/model_ffhq/model.pth (torch_old, 168900 bytes, 15 tensors)

classifiers.0.classifier.0.weight f4 [16, 512]
-0.0067552603 0.05029523 -0.027286168 -0.029782688 -0.062109638 0.011638916 -0.048958108 -0.050408002
0.019384185 0.043438956 -0.027999995 -0.0038588569 0.0052158493 0.07711478 -0.023260025 -0.005413873
0.0138494 -0.05782231 -0.007245373 -0.025102107 -0.042693924 -0.024519496 -0.049750175 0.0008559359
0.018588893 0.012717964 0.06870323 -0.058340006 -0.05042284 -0.060928687 0.041457508 -0.048117798
0.08037211 -0.013796485 -0.02239262 0.0071175345 0.074768156 0.03156023 -0.039364666 0.003472217
0.071219794 0.031472083 -0.01994343 0.014022919 0.016274542 0.045967627 0.038338017 -0.005773557
0.0045173382 -0.010687765 0.0795971 0.038018826 0.04438146 0.058924135 -0.010885514 0.004268786
-0.00022685979 -0.019038225 -0.04360949 -0.028263874 -0.005380689 0.051400952 0.073333375 0.019790787
-0.052055184 0.01863762 0.03199776 -0.013283144 0.022997985 0.018128864 -0.03569513 0.03773429
-0.006560052 0.003093159 -0.07016896 -0.0057048057 -0.031934213 -0.03280399 0.033975467 0.035538085
0.061818685 0.014905443 -0.012662996 -0.052455608 -0.0030815133 -0.030977285 -0.008160228 0.047719646
-0.016763046 0.010236197 -0.034249343 0.0040031555 0.04493836 0.005411005 0.06914258 0.044176582
-0.06478722 -0.038732164 0.055569965 0.06286965 0.008602228 -0.016324116 0.04376698 -0.010097481
0.007424893 -0.018797133 -0.0064411606 0.007368298 -0.06935372 0.0116969105 -0.023085952 -0.006283497
-0.029233744 -0.0025155132 0.022553058 0.07299623 -0.0015873285 0.046179134 -0.032518 0.0010794449
-0.04375319 0.037495203 -0.0039587626 -0.044745274 -0.06876655 0.022430433 -0.0012564901 0.012370381
0.0508065 -0.038282584 -0.06781304 -0.004692687 0.043284953 0.016785797 0.017628191 0.06941067
-0.01640383 -0.048000786 0.044313077 -0.0104378555 0.05039662 -0.03305106 -0.018456798 -0.06241151
-0.014455998 0.030216603 -0.050019138 -0.022004364 -0.05242629 -0.057456795 -0.033638906 -0.055430483
-0.005427301 0.011091607 -0.024225485 0.04370386 -0.0661568 0.031852074 0.05266348 -0.013630604
-0.024416551 0.010740321 -0.0058162333 0.05057954 0.038348023 0.009478288 0.035115514 0.010111087
-0.015265477 0.03160942 0.04873487 -0.032200556 0.007105116 -0.045456953 0.056902483 0.0445346
0.070211954 0.05426183 0.033916768 -0.007018751 0.02573502 -0.05254855 -0.0008036503 0.046068683
0.05790843 -0.0015743561 0.047188826 0.06230699 -0.001773323 -0.017924637 0.057067607 -0.0026297495
-0.00086248846 0.012318177 -0.0017550196 -0.022941476 -0.015150156 0.027834374 0.0027245996 -0.023399133
-0.043307934 -0.061270684 0.055222683 0.03391847 0.012105657 0.004930489 -0.059478752 -0.02747083
0.06979569 0.04378874 0.03698608 -0.044111643 0.006213519 -0.031195702 -0.051590618 -0.03532368
0.059699792 0.008292363 -0.026190555 0.031518027 0.001537944 -0.039981604 0.021520836 0.043799847
0.029621875 -0.049980126 -0.041686147 -0.043156464 0.0011018615 0.0068162894 0.0060308254 0.04379348
0.00017314221 0.020928208 0.036709405 -0.070522256 0.026802348 0.031392664 -0.023699583 -0.059371274
0.063200876 0.058394596 -0.028454186 0.054580506 -0.05698915 0.00022976495 -0.05299163 -0.010306787
0.029905125 0.006822604 -0.0019265992 0.032226667 -0.02191485 -0.033729754 -0.015566867 0.028140219
00000000: 3b5b ddbb 5f02 4e3d 3e87 dfbc d3fa f3bc
00000010: ad66 7ebd 27b1 3e3c 4c88 48bd 9f78 4ebd
00000020: 95cb 9e3c 0ced 313d 3f60 e5bc e0e4 7cbb
00000030: b7e9 aa3b 5bee 9d3d cf8b bebc dc66 b1bb
00000040: 98e8 623c 16d7 6cbd 986a edbb efa2 cdbc
00000050: d3df 2ebd 1cdd c8bc d7c6 4bbd e360 603a
00000060: bc47 983c 025f 503c 47b4 8c3d eef5 6ebd
00000070: 2e88 4ebd 5c90 79bd 59cf 293d 2b17 45bd
00000080: 229a a43d a70a 62bc ba70 b7bc 353a e93b
00000090: 0c20 993d 4d45 013d d83c 21bd 228e 633b
000000a0: afdb 913d dfe8 003d 6760 a3bc 63c0 653c
000000b0: 3052 853c 8d48 3c3d 5308 1d3d 1b30 bdbb
000000c0: 2e06 943b bc1b 2fbc ce03 a33d a1b9 1b3d
000000d0: 55c9 353d 6f5a 713d 2859 32bc 2ce1 8b3b
000000e0: 36e1 6db9 0df6 9bbc dd9f 32bd a489 e7bc
000000f0: 7e50 b0bb ce89 523d cf2f 963d 4a20 a23c
00000100: d137 55bd ecad 983c 1510 033d 8ba1 59bc
00000110: 4566 bc3c fc82 943c 0e35 12bd 458f 1a3d
00000120: b4f5 d6bb 99b6 4a3b beb4 8fbd 61ef babb
00000130: 73cd 02bd 7a5d 06bd dc29 0b3d 6290 113d
00000140: 9735 7d3d f635 743c 7478 4fbc b1db 56bd
00000150: 37f3 49bb 13c4 fdbc 7ab2 05bc ad75 433d
00000160: a852 89bc b9b5 273c 0a49 0cbd e72c 833b
00000170: 4911 383d cd4e b13b a09a 8d3d 81f2 343d
00000180: 29af 84bd 9ea5 1ebd 559d 633d cec1 803d
00000190: 5cf0 0c3c 27ba 85bc 0145 333d e86f 25bc
000001a0: 844c f33b 72fc 99bc 5f10 d3bb c371 f13b
000001b0: 5309 8ebd 66a4 3f3c c01e bdbc cbe5 cdbb
000001c0: 9b7b efbc 4fdb 24bb 31c1 b83c 0c7f 953d
000001d0: e80d d0ba 5526 3d3d 9831 05bd 297c 8d3a
000001e0: 8c36 33bd 9294 193d 82b8 81bb d246 37bd
000001f0: 7ad5 8cbd 07c0 b73c d0b0 a4ba 23ad 4a3c
00000200: 7a1a 503d 33ce 1cbd 90e1 8abd 1dc5 99bb
00000210: 904b 313d 5e82 893c ff68 903c 2e27 8e3d
00000220: 5361 86bc 799c 44bd a181 353d 8a03 2bbc
00000230: b06c 4e3d 8c60 07bd b632 97bc 36a3 7fbd
00000240: dad8 6cbc cf88 f73c dee0 4cbd 7f42 b4bc
00000250: f3bc 56bd d157 6bbd f3c8 09bd 130b 63bd
00000260: 80d7 b1bb 92b9 353c 8674 c6bc d202 333d
00000270: 377d 87bd 5277 023d a9b5 573d e652 5fbc
00000280: 3805 c8bc 2cf8 2f3c 1a96 bebb 7e2c 4f3d
00000290: d112 1d3d d24a 1b3c 49d5 0f3d f9a8 253c
000002a0: 0d1c 7abc e178 013d 379e 473d bbe4 03bd
000002b0: 08d2 e83b 1231 3abd 9412 693d ea69 363d
000002c0: 49cb 8f3d a741 5e3d 4fec 0a3d 8dfd e5bb
000002d0: 40d2 d23c 263d 57bd 0fac 52ba 84b2 3c3d
000002e0: 6431 6d3d a05a ceba 1249 413d 9d35 7f3d
000002f0: d96e e8ba b0d6 92bc b9bf 693d e057 2cbb
00000300: 9f18 62ba 2ed2 493c b008 e6ba c3ef bbbc
00000310: 5c38 78bc ea04 e43c 328f 323b 8aaf bfbc
00000320: a963 31bd f8f6 7abd 2e31 623d 18ee 0a3d
00000330: ce56 463c f18f a13b fe9f 73bd 820a e1bc
00000340: 0bf1 8e3d d25b 333d b77e 173d 69ae 34bd
00000350: c69a cb3b 218e ffbc af50 53bd 90af 10bd
00000360: c587 743d b1dc 073c 938d d6bc 0c19 013d
00000370: d694 c93a c0c3 23bd 774c b03c 7867 333d
00000380: 93a9 f23c f6b7 4cbd 18bf 2abd d5c4 30bd
00000390: 566c 903a 2e5b df3b 3b9e c53b cb60 333d
000003a0: 828d 3539 a271 ab3c 9a5c 163d f96d 90bd
000003b0: 9990 db3c 9895 003d a125 c2bc 4b2f 73bd
000003c0: 766f 813d 2c2f 6f3d c118 e9bc cf8f 5f3d
000003d0: 746d 69bd 0fed 7039 c00d 59bd ccdd 28bc
000003e0: 98fb f43c 2790 df3b f185 fcba 1c00 043d
000003f0: c686 b3bc 3628 0abd 2c0c 7fbc 5186 e63c

classifiers.0.classifier.0.bias f4 [16]
0.010819892 0.07225292 0.036627658 0.010923627 0.029544996 0.012413177 0.06554303 0.023702316
-0.0015488515 0.0033796704 0.062428463 0.027127646 0.016978463 0.0030606536 -0.0039317687 0.08048348
00000000: eb45 313c 57f9 933d e206 163d 03f9 323c
00000010: 5908 f23c a360 4b3c 6d3b 863d 5c2b c23c
00000020: d502 cbba 767d 5d3b fdb4 7f3d cc3a de3c
00000030: 6b16 8b3c 3f95 483b 11d6 80bb 86d4 a43d

classifiers.0.classifier.2.weight f4 [1, 16]
0.1026008 0.17283267 -0.14560857 0.08154919 0.14042181 -0.285164 0.20360295 0.096951045
0.26037967 -0.2595014 0.08256373 0.054989535 -0.14331228 0.10681667 -0.18569781 -0.24853344
00000000: 5e20 d23d 0cfb 303e 6a1a 15be 4303 a73d
00000010: bcca 0f3e 0401 92be 4b7d 503e 458e c63d
00000020: 7c50 853e 5edd 84be 2c17 a93d b53c 613d
00000030: 74c0 12be b3c2 da3d 9127 3ebe 8d7f 7ebe

classifiers.1.classifier.0.weight f4 [16, 512]
0.009701456 0.01547053 0.008606296 -0.0170688 0.049761984 0.05099181 -0.07064301 -0.017410317
-0.0034802167 0.03921944 -0.028892135 -0.02347356 -0.030661494 0.026196279 0.004373473 -0.061562147
-0.0050572054 -0.04025006 0.021468446 -0.069909915 0.030957835 -0.05768694 -0.06803906 0.019208092
-0.009618621 -0.028474253 -0.0055034743 -0.0074235783 -0.0059541147 -0.020877719 0.056001868 0.028650494
0.00903376 0.033703823 -0.04726787 0.06884081 0.022607183 0.016980926 0.03631189 0.036262166
0.03202748 -0.04038731 -0.053601645 0.023661966 0.07665327 -0.037123334 0.07491322 -0.02761083
0.03161106 -0.0143513065 -0.019724341 0.046393912 0.024832597 -0.012951619 -0.056806613 -0.023243299
0.0026943637 0.018079769 -0.0003898552 -0.057158533 0.019926066 0.022162149 0.038953073 0.015446323
-0.0132927075 0.028071797 0.008814826 -0.045935635 0.0049955207 0.040716458 -0.045651 0.04467984
0.013359085 0.020050226 0.01542639 0.02929925 -0.04653814 0.03935719 0.046246145 0.03276005
0.002987209 0.02392829 -0.0147459395 0.0054305927 -0.0700273 -0.025211873 -0.06287658 0.070970446
-0.056889433 -0.0030642245 0.04231012 -0.023841573 0.060365338 -0.0063906214 0.049712174 0.063576214
-0.024618441 -0.011895565 -0.024116391 0.045829177 0.009447708 -0.019190887 0.0074156527 0.043637954
-0.030019395 0.014147739 0.009570291 0.05496027 0.0025484879 0.01215429 0.0017610062 0.0042297877
0.012329515 0.012925433 0.070506684 0.071365945 -0.00010177684 0.0031507714 0.015786024 0.022676595
0.01340553 -0.020618496 0.07808622 -0.036390305 -0.026988203 0.06662857 0.014063717 0.07105979
-0.018542986 -0.022678006 0.015959652 0.04404281 -0.008735753 0.047894955 0.03255942 -0.06295435
0.034833368 -0.0043841354 0.064058356 -0.0083532985 0.015013591 -0.030618567 0.007841097 -0.008638148
-0.02047584 0.03138919 0.021376472 0.015714591 -0.023842396 0.015868165 -0.01642749 -0.024333859
-0.01698326 0.039779548 -0.03119808 -0.050390493 0.014345196 0.01109173 0.03867105 -0.0133995
-0.022782167 -0.007346208 -0.00026931765 -0.06157064 0.03826153 0.02258596 -0.04408295 0.05922126
-0.04579601 -0.04501813 0.016021209 -0.036617216 0.012696736 0.023792753 0.07488852 0.06942001
0.058945563 0.016844587 -0.013238812 -0.070636936 0.0761772 -0.023028206 -0.0011967561 -0.031109005
-0.03528758 -0.0020399832 0.032855723 0.03732135 -0.030505547 -0.039083846 0.048588507 -0.0029694105
0.0015430397 -0.07419627 0.06271948 -0.005012165 -0.067367375 0.03458751 0.008582812 -0.013235125
-0.078130886 -0.01715973 0.06205595 0.029327303 0.018498983 0.0022130974 -0.058585614 0.0018265245
0.06340217 -0.025796771 -0.039033454 -0.010239993 -0.018830294 -0.012880189 0.01613378 -0.02385057
-0.013870748 0.04336775 -0.036604606 -0.009176543 -0.004010183 -0.03236744 0.019879168 0.054957833
-0.031934947 0.036266286 -0.012074481 -0.0045209723 -0.006407699 0.0018048947 -0.04129097 -0.009271153
-0.028773647 -0.00900205 0.035600405 -0.0021467267 0.03901806 0.014073536 -0.031981647 0.05034237
0.050840206 0.03238495 0.006296847 0.007448256 0.06607154 -0.06107897 -0.06602379 0.05118288
-0.013947311 0.015241967 -0.019093813 -0.03356748 0.07047517 -0.043985862 0.04569777 0.032212898
00000000: dbf2 1e3c 1b78 7d3c 6c01 0d3c ded3 8bbc
00000010: 39d3 4b3d cadc 503d 48ad 90bd 15a0 8ebc
00000020: 5914 64bb 90a4 203d 33af ecbc a04b c0bc
00000030: d02d fbbc 9499 d63c 5a4f 8f3b 9728 7cbd
00000040: eab6 a5bb 3fdd 24bd 98de af3c ee2c 8fbd
00000050: 499b fd3c 2449 6cbd 1058 8bbd 4a5a 9d3c
00000060: 6c97 1dbc d642 e9bc 7d56 b4bb 7d41 f3bb
00000070: bc1a c3bb c007 abbc 3762 653d 71b4 ea3c
00000080: 5602 143c 050d 0a3d f49b 41bd 69fc 8c3d
00000090: b332 b93c 951b 8b3c c7bb 143d a387 143d
000000a0: 3f2f 033d 2a6d 25bd 668d 5bbd bdd6 c13c
000000b0: 64fc 9c3d a30e 18bd 1a6c 993d 1b30 e2bc
000000c0: 997a 013d be21 6bbc f194 a1bc 8b07 3e3d
000000d0: bb6d cb3c 0733 54bc 0dae 68bd bb68 bebc
000000e0: ec93 303b 061c 943c 7b65 ccb9 111f 6abd
000000f0: fd3b a33c 658d b53c 428d 1f3d 9312 7d3c
00000100: a8c9 59bc d3f6 e53c 0f6c 103c 0127 3cbd
00000110: 77b1 a33b 4dc6 263d 8bfc 3abd 3502 373d
00000120: 10e0 5a3c 5f40 a43c f8be 7c3c fb04 f03c
00000130: c79e 3ebd 0135 213d 996c 3d3d 672f 063d
00000140: 0dc5 433b 4305 c43c f498 71bc 1df3 b13b
00000150: 796a 8fbd 2189 cebc 70c5 80bd f458 913d
00000160: e504 69bd 28d1 48bb 604d 2d3d 674f c3bc
00000170: a541 773d 6b68 d1bb fe9e 4b3d 3f34 823d
00000180: 9dac c9bc 9ee5 42bc bd8f c5bc 60b7 3b3d
00000190: 8fca 1a3c 3536 9dbc 01ff f23b b6bd 323d
000001a0: 3ceb f5bc ebcb 673c b6cc 1c3c 051e 613d
000001b0: 8804 273b ca22 473c 90d1 e63a 089a 8a3b
000001c0: bc01 4a3c 32c5 533c cf65 903d 4f28 923d
000001d0: 0671 d5b8 2c7d 4e3b b151 813c 44c4 b93c
000001e0: dea2 5b3c 1fe8 a8bc abeb 9f3d 000e 15bd
000001f0: 5d16 ddbc 8f74 883d 816b 663c cc87 913d
00000200: 76e7 97bc 3ac7 b9bc d1bd 823c 3c66 343d
00000210: 6720 0fbc 802d 443d 075d 053d 36ee 80bd
00000220: 6fad 0e3d cba8 8fbb 0731 833d 46dc 08bc
00000230: 91fb 753c cad3 fabc f277 003c 0587 0dbc
00000240: f3bc a7bc f491 003d b61d af3c e3bb 803c
00000250: 2151 c3bc f4fd 813c f292 86bc cd57 c7bc
00000260: 7a20 8bbc e1ef 223d 1e93 ffbc 4366 4ebd
00000270: 1d08 6b3c 16ba 353c 8965 1e3d 9489 5bbc
00000280: aba1 babc 76b8 f0bb 3433 8db9 7f31 7cbd
00000290: 1fb8 1c3d 3106 b93c 5390 34bd fe91 723d
000002a0: 9994 3bbd ee64 38bd e93e 833c effb 15bd
000002b0: f805 503c 05e9 c23c 275f 993d 142c 8e3d
000002c0: e770 713d a9fd 893c 9ae7 58bc 19aa 90bd
000002d0: cb02 9c3d a6a5 bcbc 79dc 9cba 50d8 febc
000002e0: b689 10bd 3db1 05bb b993 063d 46de 183d
000002f0: c5e6 f9bc 6216 20bd be04 473d 719a 42bb
00000300: d23f ca3a 37f4 97bd 1273 803d 163d a4bb
00000310: e8f7 89bd a2ab 0d3d ec9e 0c3c 23d8 58bc
00000320: 1603 a0bd 9092 8cbc 612e 7e3d d03f f03c
00000330: 2e8b 973c 9d09 113b 78f7 6fbd fe67 ef3a
00000340: ffd8 813d c053 d3bc 8be1 1fbd a5c5 27bc
00000350: fd41 9abc 6e07 53bc fd2a 843c 4562 c3bc
00000360: 2242 63bc 62a2 313d b6ee 15bd 3659 16bc
00000370: da67 83bb b993 04bd a3d9 a23c 771b 613d
00000380: 38ce 02bd f58b 143d 0bd4 45bc aa24 94bb
00000390: adf7 d1bb 3792 ec3a b820 29bd 09e6 17bc
000003a0: b6b6 ebbc 567d 13bc bbd1 113d 19b0 0cbb
000003b0: 67d1 1f3d b094 663c 30ff 02bd cd33 4e3d
000003c0: d23d 503d 15a6 043d c855 ce3b 8010 f43b
000003d0: 8450 873d f12d 7abd 7b37 87bd 24a5 513d
000003e0: 4383 64bc 71b9 793c a16a 9cbc 0e7e 09bd
000003f0: 4955 903d 852a 34bd 962d 3b3d acf1 033d

classifiers.1.classifier.0.bias f4 [16]
0.072799884 0.04830998 0.008488289 0.07425371 0.05667149 0.0007336994 0.07817341 0.015904894
-0.0050332104 -0.012028188 0.018139532 0.011026358 0.052492708 0.01867049 -0.005081606 0.034199752
00000000: 1b18 953d b0e0 453d 7712 0b3c 5412 983d
00000010: 5d20 683d bc55 403a 6119 a03d fb4a 823c
00000020: a1ed a4bb e111 45bc 5b99 943c e6a7 343c
00000030: 9802 573d dbf2 983c 9a83 a6bb 0a15 0c3d

classifiers.1.classifier.2.weight f4 [1, 16]
-0.10369344 0.13111198 0.20671615 -0.2731743 0.06894193 -0.2310887 0.04547249 -0.21752407
0.06938398 -0.2286107 0.2793108 -0.0790111 -0.20623282 0.06612878 0.27573958 0.24948426
00000000: 3a5d d4bd 3842 063e 66ad 533e 80dd 8bbe
00000010: 6d31 8d3d 84a2 6cbe 5d41 3a3d a1be 5ebe
00000020: 3019 8e3d ec18 6abe d301 8f3e 92d0 a1bd
00000030: b22e 53be 876e 873d bd2d 8d3e cd78 7f3e

classifiers.2.classifier.0.weight f4 [16, 512]
-0.0064438134 -0.012407018 0.07125928 -0.027978208 0.003143707 0.052959554 -0.037115864 0.0024945901
0.01987634 -0.019254485 -0.024628274 0.029692905 0.035221536 0.023626365 -0.034202263 -0.006687028
0.0046619647 -0.05070104 -0.019767197 -0.04273778 0.005020245 -0.01146719 -0.030106734 -0.017920282
0.02373773 0.029191364 0.049627453 -0.057637963 0.05612762 -0.018869791 0.06402076 -0.06051437
-0.005843623 0.000794163 -0.03822342 -0.048013166 0.013022737 0.07190665 -0.013454181 -0.05302007
0.046185575 0.060909566 0.054029398 0.00014311404 -0.048253056 -0.0053587114 -0.0026973274 0.014445686
0.031747 -0.033523988 0.061884683 -0.0037644103 -0.029035253 0.07513653 0.010966739 -0.020908266
-0.012934703 -0.037266295 -0.025319744 -0.052612796 0.02169254 0.058725968 0.0482767 0.040509343
-0.007408024 0.06911944 -0.007318779 0.036848765 -0.0043244916 0.04824165 -0.07018469 -0.04252496
-0.0055937762 -0.011622116 -0.050536178 -0.03771805 0.017612278 -0.03608513 0.024046836 -0.034035515
-0.035328865 0.01220941 0.021117866 0.005005573 0.07459096 -0.013030197 -0.014911137 0.037755772
-0.06888393 0.037320122 0.00033438095 0.0009965234 -0.021343285 -0.064483665 0.06726634 0.03500097
-0.062806 0.007804309 0.058257777 -0.007386517 -0.05464116 -0.0052383635 -0.033602457 0.08046736
-0.039030373 0.03818863 -0.033090677 0.0067595225 -0.004870804 0.03314544 0.026992822 0.00696021
0.02257988 0.011863167 0.021422178 -0.04113197 0.059345685 -0.04247531 -0.05107792 -0.041725487
-0.03300144 0.03841863 0.020555103 -0.06193974 -0.065853186 -0.013039448 -0.030076869 -0.06492617
-0.043467958 0.017941896 0.004294601 0.03295616 -0.0057916585 0.059010744 0.0019830521 0.0013142213
-0.0100730425 0.018804597 -0.03665202 0.040618252 0.042898428 -0.00042393935 -0.02920996 -0.068336844
0.06806894 0.012286109 0.00038351194 0.04304037 -0.07690881 -0.025984155 0.033238 0.034770664
-0.07140265 0.029774651 -0.04646039 -0.006329384 -0.016916886 0.01604284 0.0559072 0.004783017
0.055728063 0.009878951 0.032115266 -0.07595521 0.04994302 -0.0348438 0.010415756 0.07818401
0.06228121 0.062478103 0.0025585685 -0.053846143 -0.058041696 0.013088042 -0.048149187 0.040536277
0.022009218 -0.006647824 0.010748415 0.0022035777 -0.060248863 -0.056870464 0.012193092 0.031592596
-0.035817686 -0.05806067 0.012613751 0.05149359 0.012970258 -0.06300308 -0.006755037 0.01225606
-0.027191177 0.009869882 -0.008655135 0.047641844 -0.03865362 -0.014055149 0.0033136795 0.007978635
0.050105218 -0.021297958 0.040400945 -0.022188772 -0.034750752 0.00036525863 0.0043236814 -0.017032405
0.05587029 0.03154424 -0.014979375 -0.04179008 0.055382214 -0.053513445 -0.071620114 0.0037266272
0.064534344 0.0688311 -0.059167285 0.035233274 0.08075653 -0.032133933 0.033776738 0.04420367
0.046371892 -0.07331188 -0.05171269 0.017869461 0.02727442 0.021167794 0.0043177037 0.02674169
0.075493544 0.023056574 0.03172653 0.040945206 -0.026360082 -0.05575657 0.018368311 -0.029676234
0.0045412662 0.0680277 -0.014996433 0.064361565 -0.027004696 0.03500178 -0.025764804 -0.051581703
-0.014622535 -0.022732228 -0.048322268 -0.027090164 -0.013999746 -0.026884187 -0.027134141 0.047824476
00000000: a026 d3bb ce46 4bbc 63f0 913d 8e32 e5bc
00000010: a706 4e3b 1eec 583d ce06 18bd 477c 233b
00000020: b5d3 a23c 95bb 9dbc 3cc1 c9bc 893e f33c
00000030: 7544 103d 148c c13c ac17 0cbd db1e dbbb
00000040: 65c3 983b e5ab 4fbd d1ee a1bc cf0d 2fbd
00000050: de80 a43b e2e0 3bbc 66a2 f6bc 8ecd 92bc
00000060: a175 c23c ba22 ef3c 2846 4b3d c915 6cbd
00000070: 13e6 653d d294 9abc 511d 833d ebdd 77bd
00000080: dd7b bfbb 602f 503a 2990 1cbd 74a9 44bd
00000090: 515d 553c cb43 933d ed6e 5cbc 932b 59bd
000000a0: 162d 3d3d 4f7c 793d ee4d 5d3d e210 1639
000000b0: ffa4 45bd 2198 afbb a5c5 30bb 99ad 6c3c
000000c0: 2409 023d 7350 09bd cb7a 7d3d 53b4 76bb
000000d0: 57db edbc 2ee1 993d d6ad 333c d047 abbc
000000e0: 14ec 53bc 8ba4 18bd 5a6b cfbc 8480 57bd
000000f0: 8eb4 b13c a48a 703d cabd 453d 20ed 253d
00000100: 02bf f2bb 7e8e 8d3d 5ed2 efbb bbee 163d
00000110: 77b4 8dbb 0999 453d febc 8fbd a72e 2ebd
00000120: ff4b b7bb b06a 3ebc 06ff 4ebd 3e7e 1abd
00000130: a047 903c 00ce 13bd dffd c43c d368 0bbd
00000140: 00b5 10bd fa09 483c 60ff ac3c ca05 a43b
00000150: 25c3 983d 9b7c 55bc d74d 74bc cca5 1a3d
00000160: 0513 8dbd fcdc 183d da4f af39 c79d 823a
00000170: 1dd8 aebc 0310 84bd efc2 893d 2d5d 0f3d
00000180: 6fa0 80bd 4abb ff3b b59f 6e3d 980a f2bb
00000190: 69cf 5fbd 94a6 abbb bba2 09bd 12cc a43d
000001a0: 50de 1fbd ae6b 1c3d 178a 07bd fc7e dd3b
000001b0: 449b 9fbb 83c3 073d 0d20 dd3c 7912 e43b
000001c0: 71f9 b83c bb5d 423c 907d af3c ff79 28bd
000001d0: 7614 733d 97fa 2dbd 1537 51bd 58e8 2abd
000001e0: 852c 07bd da5c 1d3d 2d63 a83c 86b4 7dbd
000001f0: 09de 86bd 69a3 55bc c463 f6bc 03f8 84bd
00000200: 750b 32bd e2fa 923c b9b9 8c3b 0afd 063d
00000210: f4c7 bdbb 40b5 713d 18f6 013b f341 ac3a
00000220: 6709 25bc 190c 9a3c 6e20 16bd 535f 263d
00000230: 43b6 2f3d 2d44 deb9 ba49 efbc 30f4 8bbd
00000240: ba67 8b3d ad4b 493c 1a12 c939 194b 303d
00000250: 5e82 9dbd b9dc d4bc 9224 083d af6b 0e3d
00000260: 8d3b 92bd f8e9 f33c 404d 3ebd b966 cfbb
00000270: 4895 8abc 466c 833c f3fe 643d dbba 9c3b
00000280: 1c43 643d 53db 213c 4c8b 033d 688e 9bbd
00000290: 0d91 4c3d 5fb8 0ebd d9a6 2a3c f01e a03d
000002a0: 951a 7f3d 0ae9 7f3d a8ad 273b c68d 5cbd
000002b0: 21bd 6dbd 3a6f 563c 1538 45bd 5e09 263d
000002c0: ad4c b43c fdd5 d9bb 1f1a 303c e669 103b
000002d0: 83c7 76bd 01f1 68bd 89c5 473c 3d67 013d
000002e0: 91b5 12bd 06d1 6dbd e8a9 4e3c f1ea 523d
000002f0: 3481 543c c207 81bd 5b59 ddbb a4cd 483c
00000300: 08c0 debc 49b5 213c 44ce 0dbc 1824 433d
00000310: 4253 1ebd 9147 66bc 512a 593b d2b8 023c
00000320: 213b 4d3d 0e79 aebc 767b 253d 3ac5 b5bc
00000330: ce56 0ebd 2f80 bf39 abad 8d3b 8b87 8bbc
00000340: 3fd8 643d 8834 013d 0d6c 75bc 132c 2bbd
00000350: 76d8 623d ea30 5bbd 91ad 92bd 6e3a 743b
00000360: 952a 843d 52f7 8c3d 6559 72bd c450 103d
00000370: ae63 a53d df9e 03bd 7a59 0a3d e80e 353d
00000380: 74f0 3d3d 8a24 96bd b0d0 53bd fa62 923c
00000390: 9b6e df3c 1568 ad3c 867b 8d3b 6311 db3c
000003a0: 5c9c 9a3d 24e1 bc3c aef3 013d 29b6 273d
000003b0: 19f1 d7bc 0061 64bd 2479 963c 931b f3bc
000003c0: e7ce 943b 1b52 8b3d 99b3 75bc ffcf 833d
000003d0: f438 ddbc 075e 0f3d b610 d3bc 5647 53bd
000003e0: 5b93 6fbc f038 babc 92ed 45bd 31ec ddbc
000003f0: 315f 65bc 3a3c dcbc 6b48 debc 99e3 433d

classifiers.2.classifier.0.bias f4 [16]
0.00055024296 0.028623166 0.039397307 0.062072348 0.012730196 0.0024907622 0.004329123 0.05662864
0.033500027 0.018216807 -0.0002647426 0.0123220645 0.05917197 0.0044191508 0.0075202147 0.03232015
00000000: 2e3e 103a 217b ea3c 125f 213d 933f 7e3d
00000010: 5092 503c 0e3c 233b 51db 8d3b 6ff3 673d
00000020: 5337 093d 6a3b 953c 26cd 8ab9 7ce2 493c
00000030: 4f5e 723d 86ce 903b 226c f63b 2262 043d

classifiers.2.classifier.2.weight f4 [1, 16]
0.13463335 -0.10789495 -0.1586641 -0.20703883 -0.28464472 0.27285615 -0.16315459 -0.21438664
-0.19416428 0.100535534 0.20903374 0.12106844 -0.15441887 -0.14290228 -0.26572973 -0.2960686
00000000: 53dd 093e 07f8 dcbd d878 22be fd01 54be
00000010: f4bc 91be cdb3 8b3e ff11 27be 2c88 5bbe
00000020: 00d3 46be 93e5 cd3d f10c 563e bbf2 f73d
00000030: fb1f 1ebe fa54 12be ba0d 88be 4e96 97be

classifiers.3.classifier.0.weight f4 [16, 512]
0.055809144 -0.010858707 0.030047802 -0.042399894 -0.027583081 0.03350816 -0.0082281735 -0.001898687
-0.0042690895 0.020672997 0.054516267 0.014278648 -0.0373662 -0.05597205 0.004150502 0.055950135
-0.06194294 0.01699646 0.025069397 0.005143269 0.033211473 0.056509096 -0.05825793 -0.0002228442
-0.024056634 -0.0035372125 0.054607347 0.026999202 0.062082518 -0.011276113 -0.027137928 0.033692222
-0.00066093664 0.06892714 -0.039599244 0.011098888 0.013447987 0.03859774 -0.003269603 0.028866205
-0.029689865 -0.009351773 -0.0050418423 0.037593745 -0.005742523 0.022040883 0.047391135 -0.0028638404
-0.014771996 -0.06619492 0.00096815586 -0.04067409 0.03163041 -0.022927102 -0.051473986 0.0069276975
-0.025439803 0.05762542 -0.059400927 -0.0427241 0.0065230546 -0.030780701 0.0024873759 -0.0403195
0.029626844 -0.021678252 0.007766464 0.050035145 -0.016524237 -0.019057425 -0.06522131 0.07154499
-0.06637864 0.03925251 0.004750461 0.070280336 0.048248906 0.03504702 0.004359847 0.033816803
-0.019023415 0.01312962 0.035618853 0.026957424 -0.02434157 0.0405863 0.07631552 0.06722605
0.036012135 0.05411784 0.07059681 -0.009648574 -0.03972435 -0.010502195 0.031500258 0.023488564
0.03349976 -0.061172478 0.025592929 0.06863368 0.06236234 -0.014266278 0.012174903 -0.015003903
0.014813819 -0.0068800915 0.044223573 0.042620532 0.0062543806 -0.013312226 -0.0020525514 0.020571925
0.01294447 0.06986594 0.014176594 -0.013546188 -0.0082590375 0.046159487 -0.019423371 0.06259795
0.026238432 -0.011842831 -0.01648421 0.048822686 0.019485354 0.02782211 0.034688406 0.012379378
0.030413626 -0.03855004 -0.0017599926 -0.0074608005 0.008433443 0.0025857745 -0.031443812 -0.03012558
-0.024448413 -0.008765397 0.014836676 -0.04393417 0.003232032 0.0006129178 -0.004772787 0.028176127
0.0037777885 0.0544311 -0.003293732 0.06617942 0.03430035 0.0007376211 0.009756454 -0.036540892
-0.011879832 0.07262441 -0.0068726735 0.05032722 -0.02274472 0.050857972 -0.02221753 0.023913309
0.054357145 -0.012158451 -0.017732961 0.010563348 0.055835422 0.048544466 -0.025862273 0.016552102
-0.013052446 -0.0024706014 0.055817652 0.0053605926 0.0072449637 -0.008680874 0.03215128 0.034602046
0.05139714 0.054850362 0.058617804 -0.020655157 0.05271271 0.06187763 -0.04530913 -0.055491906
0.017339563 0.057526067 -0.0043426105 0.060424697 -0.01781766 -0.015914336 0.022837903 0.01138637
0.059116755 -0.00018187394 0.0526036 -0.059661195 -0.007253319 0.007221829 0.014996673 0.012988108
-0.008389534 -0.03537027 -0.020721639 0.027334481 -0.013942606 0.038770247 -0.027632713 0.05592061
0.03660676 0.03127945 -0.023630405 0.00774723 0.013030272 -0.0022797082 0.0709786 -0.0628978
0.023497118 0.018007921 -0.036126807 -0.07129963 -0.017832624 0.006693899 0.04951654 -0.034177314
-0.00070816407 -0.008630135 0.015952209 0.023750048 -0.054253776 0.009033804 0.0039273514 0.024832716
0.03491984 0.0030294766 -0.008933379 -0.054113436 -0.0004757367 -0.0026824065 -0.041367933 0.06580193
-0.04291958 0.05551544 -0.053859435 -0.017481374 0.007741316 -0.005587366 -0.008679573 -0.0045962366
0.07170584 0.029963119 -0.0044723367 0.025029343 0.020452682 0.052391827 0.013745307 0.054453965
00000000: 2198 643d b8e8 31bc cf26 f63c 83ab 2dbd
00000010: eaf5 e1bc da3f 093d 76cf 06bc 5ddd f8ba
00000020: b8e3 8bbb 6b5a a93c 734c 5f3d fef0 693c
00000030: 4d0d 19bd f342 65bd ef00 883b f82b 653d
00000040: e1b7 7dbd 293c 8b3c 565e cd3c de88 a83b
00000050: c108 083d 1576 673d de9f 6ebd 49ab 69b9
00000060: 6b12 c5bc 94d0 67bb f4ab 5f3d 6e2d dd3c
00000070: 3d4a 7e3d 72bf 38bc 5c50 debc db00 0a3d
00000080: b542 2dba ac29 8d3d d132 22bd 1cd8 353c
00000090: f254 5c3c aa18 1e3d d646 56bb d278 ec3c
000000a0: 2938 f3bc 2e38 19bc 0a36 a5bb e6fb 193d
000000b0: c62b bcbb 158f b43c 351d 423d 45af 3bbb
000000c0: 3e06 72bc 3491 87bd d7cb 7d3a e099 26bd
000000d0: e48e 013d 9ed1 bbbc 63d6 52bd bd01 e33b
000000e0: 2267 d0bc a208 6c3d 634e 73bd 77ff 2ebd
000000f0: 59bf d53b cf27 fcbc 3e03 233b 0f26 25bd
00000100: ffb3 f23c 9796 b1bc d27d fe3b a7f1 4c3d
00000110: d65d 87bc 511e 9cbc c092 85bd 2e86 923d
00000120: 86f1 87bd 3dc7 203d c1a9 9b3b 23ef 8f3d
00000130: a5a0 453d 778d 0f3d 0cdd 8e3b 7d83 0a3d
00000140: fed6 9bbc 9e1d 573c 13e5 113d d1d5 dc3c
00000150: f967 c7bc d23d 263d 504b 9c3d d0ad 893d
00000160: 7681 133d abaa 5d3d 0f95 903d 0d15 1ebc
00000170: 00b6 22bd 6611 2cbc 6a06 013d 176b c03c
00000180: 0b37 093d fe8f 7abd 43a8 d13c d18f 8c3d
00000190: a76f 7f3d 1bbd 69bc 3f79 473c eed2 75bc
000001a0: a9b5 723c 6472 e1bb c723 353d de92 2e3d
000001b0: 8cf1 cc3b 861b 5abc 1984 06bb 7486 a83c
000001c0: 0b15 543c e015 8f3d f244 683c d5f0 5dbc
000001d0: ea50 07bc bb11 3d3d c31d 9fbc 5b33 803d
000001e0: fbf1 d63c 6f08 42bc e509 87bc 4cfa 473d
000001f0: c09f 9f3c 32eb e33c 6e15 0e3d e0d2 4a3c
00000200: ff25 f93c a6e6 1dbd 8daf e6ba bb79 f4bb
00000210: 6c2c 0a3c 1976 293b 3acb 00bd ecc9 f6bc
00000220: 0a48 c8bc bd9c 0fbc 8815 733c 51f4 33bd
00000230: 80d0 533b 38ac 203a 0a65 9cbb 9fd1 e63c
00000240: c694 773b 25f3 5e3d a7db 57bb 1389 873d
00000250: 867e 0c3d ea5c 413a 89d9 1f3c e7ab 15bd
00000260: a0a3 42bc 1bbc 943d 2a34 e1bb ea23 4e3d
00000270: 2353 babc 7350 503d 8a01 b6bc d8e5 c33c
00000280: 99a5 5e3d 3d34 47bc b744 91bc e511 2d3c
00000290: afb3 643d 90d6 463d 1edd d3bc 4698 873c
000002a0: edd9 55bc d0e9 21bb 0da1 643d e9a7 af3b
000002b0: 2967 ed3b 393a 0ebc 10b1 033d e0ba 0d3d
000002c0: cf85 523d c6aa 603d 3919 703d 0135 a9bc
000002d0: 48e9 573d 6673 7d3d 1196 39bd 7b4b 63bd
000002e0: b30b 8e3c 74a0 6b3d 754c 8ebb e37f 773d
000002f0: 57f6 91bc c85e 82bc 8e16 bb3c e68d 3a3c
00000300: 6924 723d 6ab5 3eb9 df76 573d 4c5f 74bd
00000310: 40ad edbb 18a5 ec3b 9bb4 753c 13cc 543c
00000320: 4274 09bc 6be0 10bd 6dc0 a9bc 90ec df3c
00000330: 876f 64bc 8dcd 1e3d 005e e2bc 020d 653d
00000340: f8f0 153d e11e 003d 8d94 c1bc 7adc fd3b
00000350: ec7c 553c 2867 15bb 3a5d 913d 90d0 80bd
00000360: 077d c03c 5985 933c b4f9 13bd 8a05 92bd
00000370: b915 92bc 7f58 db3b dbd1 4a3d 83fd 0bbd
00000380: 16a4 39ba 6965 0dbc 35ae 823c 768f c23c
00000390: 3539 5ebd 8502 143c 03b1 803b fb6d cb3c
000003a0: 1b08 0f3d 2f8a 463b 4f5d 12bc 0da6 5dbd
000003b0: 4d6c f9b9 50cb 2fbb 6c71 29bd 2ac3 863d
000003c0: 71cc 2fbd 2864 633d b69b 5cbd 1935 8fbc
000003d0: deaa fd3b 3916 b7bb c534 0ebc 079c 96bb
000003e0: 83da 923d 3775 f53c ae8c 92bb 560a cd3c
000003f0: 628c a73c d098 563d ff33 613c 1f0b 5f3d

classifiers.3.classifier.0.bias f4 [16]
0.047392625 0.044968214 0.028268706 0.029445648 0.04769225 0.06336261 0.060230773 0.0136830015
0.08559967 0.06869152 0.014848677 0.022232937 0.045906954 0.00026490618 0.061417457 -0.00852677
00000000: c51e 423d 9730 383d c693 e73c 0038 f13c
00000010: f358 433d 42c4 813d 8bb4 763d ab2e 603c
00000020: e14e af3d 24ae 8c3d de47 733c d921 b63c
00000030: ee08 3c3d 1be3 8a39 df90 7b3d deb3 0bbc

classifiers.3.classifier.2.weight f4 [1, 16]
0.23152563 0.14632963 -0.14807816 -0.11760005 0.27604473 0.04935642 -0.13499224 -0.16061832
0.058720585 0.27390978 -0.17017923 -0.20432776 0.10315366 -0.16294067 -0.1577228 -0.13750735
00000000: 0e15 6d3e 6fd7 153e cda1 17be 4cd8 f0bd
00000010: bc55 8d3e f529 4a3d 683b 0abe 2179 24be
00000020: ff84 703d e73d 8c3e 7743 2ebe 4c3b 51be
00000030: 3a42 d33d ebd9 26be 1682 21be bace 0cbe

classifiers.4.classifier.0.weight f4 [16, 512]
-0.07636289 0.007927677 -0.013590544 -0.012414993 0.013851443 -0.018850977 -0.03818066 -0.021079045
0.02218243 0.007374881 -0.0073522707 -0.0132841095 -0.003059559 0.011860775 -0.043404356 0.058024865
-0.030858025 0.03679866 -0.024245072 0.0031943452 -0.008371405 -0.018033085 -0.0024320527 -0.010374943
0.022106446 -0.0029102801 -0.0040517393 -0.034468636 0.01393621 -0.032682646 0.03397244 0.039590944
0.04119234 -0.00089084805 -0.0158866 0.035011783 0.042793933 0.07453938 0.049654674 0.051448807
0.072370306 0.04788585 -0.069362216 0.010336333 -0.004276543 -0.013640086 0.060909003 0.0037526656
0.023558632 0.008204553 -0.010568065 0.058201328 0.02863942 0.025680723 0.010846579 -0.05318626
-0.048759595 -0.00070574303 -0.019708201 -0.018606218 -0.0043305117 0.023286898 -0.014649077 0.063055374
-0.01985571 0.018621065 -0.0038968995 0.02172596 -0.069154486 -0.06266475 -0.025642851 -0.00041382565
-0.022023123 0.015908305 -0.0032211929 0.00089336117 -0.053883497 0.013911365 -0.0051087565 0.05574687
0.04029526 0.03291199 0.0061341957 0.010667556 0.020689461 -0.008980655 -0.031028183 0.04150273
0.008374609 0.023185605 0.003257983 0.009031807 0.029495608 0.019557966 5.328868e-05 -0.06483634
-0.055424605 -0.019052913 0.007283621 -0.014779638 0.05726599 -0.018858222 0.054304834 -0.05549756
0.00020283557 0.00033046902 0.017429387 -0.04682108 -0.0062599108 -0.006074679 -0.0047782212 0.03306833
0.0054613156 -0.0064746304 0.06606195 -0.0027929333 0.016701374 0.041933388 0.005577569 -0.06280253
-0.020712564 0.039926615 0.038738422 -0.016514855 -0.06012311 0.015091272 0.015272558 0.061216183
0.02686617 0.053302187 -0.016787462 -0.0043879026 -0.019310763 -0.035857946 0.010613751 0.015575295
0.016252356 -0.0049968767 0.060772832 0.0036442615 0.048686747 -0.0032072852 0.00051640894 -0.039797574
0.038686585 0.00018155109 -0.013510261 0.022490658 0.036951188 0.014542764 -0.06788636 -0.025015507
-0.015531883 -0.00216132 -0.041960157 -0.009502842 -0.03715859 -0.056281496 -0.0128636295 -0.029827854
-0.031661958 -0.04702328 -0.047239617 -0.06543755 0.009078458 0.023401618 0.038034234 0.06707209
-0.023479268 -0.030014846 0.04396087 0.07293313 -0.004575016 -0.030291665 0.00094444427 0.01931637
-0.00871204 0.042306248 -0.009011276 -0.0490418 0.044907942 -0.039460763 -0.011202066 -0.049319986
-0.054386474 -0.0186524 0.05346681 -0.063030176 -0.033455115 -0.052822214 0.056891512 0.013448381
0.054429613 0.023730882 0.075490706 -0.02600374 -0.012799022 0.06450421 0.04442152 -0.020730315
0.047515593 0.0031829798 0.06830396 0.03494666 -0.063989736 -0.020512288 0.034715604 0.0438945
0.07530876 -0.04697754 -0.016685193 -0.036752637 -0.031439982 -0.0075110025 -0.053596076 -0.032749098
-0.002322271 -0.004950042 0.012351405 -0.018779239 0.044146337 -0.00973005 -0.016285367 -0.043156832
0.035321005 0.018849714 -0.018065825 -0.0061933775 0.016647505 -0.010553996 -0.048260503 -0.03129191
0.010498947 -0.043897856 -0.036725856 0.013484905 0.03535558 -0.010442857 -0.021432303 0.055177703
0.03834862 0.014845572 -0.015471583 0.011255072 -0.03440577 0.007804992 -0.0149359545 0.0033258714
0.06590221 0.021489615 -0.052163985 -0.0026645772 0.06172788 0.039753504 -0.005696981 0.06053652
00000000: 2664 9cbd 16e3 013c e0aa 5ebc 4168 4bbc
00000010: 2af1 623c 5d6d 9abc 5363 1cbd f6ad acbc
00000020: edb7 b53c fca8 f13b 51eb f0bb 98a5 59bc
00000030: e282 48bb b253 423c c4c8 31bd 7bab 6d3d
00000040: f8c9 fcbc 31ba 163d 9a9d c6bc 3858 513b
00000050: 3828 09bc 1fba 93bc 1363 1fbb aafb 29bc
00000060: 9418 b53c 66ba 3ebb 74c4 84bb fc2e 0dbd
00000070: b454 643c 3dde 05bd af26 0b3d 1d2a 223d
00000080: 4db9 283d cd87 69ba 9d24 82bc 8468 0f3d
00000090: b148 2f3d 1aa8 983d b362 4b3d fcbb 523d
000000a0: e236 943d f423 443d c70d 8ebd b959 293c
000000b0: 3e22 8cbb ab7a 5fbc b87b 793d 48ef 753b
000000c0: 08fe c03c 646c 063c ad25 2dbc 8464 6e3d
000000d0: 389d ea3c 6160 d23c dab5 313c d6d9 59bd
000000e0: 24b8 47bd 9d01 39ba 1873 a1bc 116c 98bc
000000f0: f7e6 8dbb 2ac4 be3c af02 70bc 2d23 813d
00000100: 71a8 a2bc 348b 983c 2063 7fbb a4fa b13c
00000110: dea0 8dbd 6056 80bd f510 d2bc bdf6 d8b9
00000120: d669 b4bc 2252 823c a61a 53bb 7430 6a3a
00000130: f1b4 5cbd 7eec 633c 5b67 a7bb d456 643d
00000140: a40c 253d b9ce 063d 5d01 c93b f9c6 2e3c
00000150: f27c a93c 9923 13bc d12e febc c4fe 293d
00000160: a835 093c bdef bd3c e283 553b 25fa 133c
00000170: c6a0 f13c 0738 a03c 4982 5f38 eac8 84bd
00000180: e904 63bd db14 9cbc 71ab ee3b 4b26 72bc
00000190: be8f 6a3d 8f7c 9abc bf6e 5e3d 6951 63bd
000001a0: 42b0 5439 cd42 ad39 13c8 8e3c 76c7 3fbd
000001b0: f01f cdbb 1a0e c7bb a092 9cbb a872 073d
000001c0: d6f4 b23b 2329 d4bb 7d4b 873d a509 37bb
000001d0: 52d1 883c 58c2 2b3d 0ac4 b63b 9d9e 80bd
000001e0: 65ad a9bc 178a 233d 2eac 1e3d 294a 87bc
000001f0: a643 76bd 6241 773c c039 7a3c d2bd 7a3d
00000200: 7116 dc3c 6553 5a3d dc85 89bc 65c8 8fbb
00000210: 9b31 9ebc c8df 12bd 4ce5 2d3c 862f 7f3c
00000220: a923 853c d7bc a3bb efec 783d 90d4 6e3b
00000230: c16b 473d 5131 52bb 9e5f 073a c802 23bd
00000240: d375 1e3d c05e 3e39 245a 5dbc 543e b83c
00000250: 215a 173d c644 6e3c 0108 8bbd 52ed ccbc
00000260: 7079 7ebc efa4 0dbb 6ade 2bbd cfb1 1bbc
00000270: 9b33 18bd 6d87 66bd f9c1 52bc 8b59 f4bc
00000280: f8af 01bd 7c9b 40bd 547e 41bd 1f04 86bd
00000290: d0bd 143c c0b4 bf3c c9c9 1b3d 185d 893d
000002a0: 9857 c0bc b2e1 f5bc 5010 343d f75d 953d
000002b0: 04ea 95bb 3a26 f8bc 9594 773a 5d3d 9e3c
000002c0: f2bc 0ebc 5149 2d3d 08a4 13bc 0ee0 48bd
000002d0: 64f1 373d 9ca1 21bd df88 37bc c103 4abd
000002e0: 5ac4 5ebd ebcc 98bc 0400 5b3d f715 81bd
000002f0: 3b08 09bd 1b5c 58bd 1307 693d 9956 5c3c
00000300: 96f1 5e3d 4467 c23c df9a 9a3d cc05 d5bc
00000310: fdb2 51bc c91a 843d 57f3 353d 9fd2 a9bc
00000320: b69f 423d 8a99 503b f2e2 8b3d 3b24 0f3d
00000330: 0d0d 83bd 6309 a8bc f331 0e3d b8ca 333d
00000340: 7b3b 9a3d 856b 40bd 63af 88bc ef89 16bd
00000350: 36c7 00bd db1e f6bb 8f87 5bbd eb23 06bd
00000360: 3e31 18bb f633 a2bb 8c5d 4a3c ebd6 99bc
00000370: cad2 343d ca6a 1fbc e468 85bc 38c5 30bd
00000380: c2ac 103d b76a 9a3c c8fe 93bc d1f1 cabb
00000390: 5960 883c abea 2cbc ceac 45bd f22b 00bd
000003a0: c703 2c3c 3dce 33bd da6d 16bd caef 5c3c
000003b0: 03d1 103d 8418 2bbc cc92 afbc 0402 623d
000003c0: 7113 1d3d d83a 733c 867c 7dbc 3267 383c
000003d0: 11ed 0cbd 05c1 ff3b efb5 74bc ddf6 593b
000003e0: bdf7 863d fd0a b03c e7a9 55bd 30a0 2ebb
000003f0: 60d6 7c3d 92d4 223d bead babb 24f5 773d

classifiers.4.classifier.0.bias f4 [16]
0.005677851 0.026114028 0.023027122 0.05863355 -0.0018700942 0.016326984 0.01939089 0.028230881
0.001406333 0.0054391203 0.052434046 0.018823186 0.027404139 0.065808065 0.052178185 0.007007253
00000000: 440d ba3b 16ed d53c 60a3 bc3c bc29 703d
00000010: f31d f5ba 2bc0 853c a5d9 9e3c 7344 e73c
00000020: b454 b83a a63a b23b 15c5 563d 1533 9a3c
00000030: a57e e03c 61c6 863d cbb8 553d 199d e53b

classifiers.4.classifier.2.weight f4 [1, 16]
0.11273838 -0.16203028 -0.19823308 0.10285903 -0.20388356 -0.18278839 -0.2632933 0.07101718
0.28879526 0.22995605 0.1476685 -0.15982732 -0.097193606 -0.14446072 0.12529442 0.16855928
00000000: 61e3 e63d 44eb 25be 9dfd 4abe c1a7 d23d
00000010: dac6 50be e12c 3bbe 61ce 86be 7571 913d
00000020: f9dc 933e 9979 6b3e 6936 173e c6a9 23be
00000030: 710d c7bd 83ed 13be 2e4d 003e ce9a 2c3e
